data.pth (torch, 5291 bytes, 6 tensors)

l1.weight f4 [8, 54]
00000000: 5db2 063f 9189 df3e 5590 993e 7b48 b43c
00000010: ffab f5be cf82 383d 4da5 473e e259 f53d
00000020: ddf5 113f 1f20 313e fa83 26bd f986 c23e
00000030: 8717 a53e 64a8 b93e a3c8 b93e 0850 87bd
00000040: cb16 0abe a4e4 cf3d 5242 07be 91db 8fbe
00000050: 3d57 8c3e 04c1 8dbe 9ebd 99be 90e7 ee3c
00000060: 39df 50bd b169 f4bc 1a04 42be e0ef 983e
00000070: e8b4 9ebd 076a a73e 870b c8bd c8e2 b23e
00000080: 0bb2 6e3e 8621 a63e bdcc ed3e 7eff a43c
00000090: f267 dcbd b203 093f f069 873e 0ed6 a43e
000000a0: 3a34 613d bbfe 8fbe f2f9 913e b611 9b3e
000000b0: 97d4 c13e e332 e43e 95eb 173f 8163 053f
000000c0: 88c0 81bd 22b4 8abe 409c f23d 4f03 27be
000000d0: ef95 5f3e c74e 913e 93c6 523e 7c80 2dbe
000000e0: a640 003f 4679 8f3d 2c2b 393e 1ad2 fabe
000000f0: 8898 b83e 76a2 c53e f553 e93e fef7 5a3e
00000100: ef51 e5bd 4f8c 2c3f 25c1 503e 5722 ed3e
00000110: ae3d d43c 9872 153f bed8 1fbe 76dd fabe
00000120: 220a a6be 9728 ba3d 9ba1 4f3e 137e 3fbd
00000130: 4a0b f93c ab68 903d a423 b43e 3679 c3bd
00000140: 6bbc aabe ceb9 02be 5416 a1bd 425c a8be
00000150: 8bbb a8be 5e68 043f 10ba 793e 0388 003f
00000160: d527 9ebd a04b 0d3f 080f f63c fa68 d63e
00000170: d694 8c3e 9e7a c23e a097 c9be 92e0 d4be
00000180: ce31 be3e 1235 cbbd da8e 103f 1f7f 2f3c
00000190: 558b e43e e2dd 243e 6c05 90bb e0c6 02bf
000001a0: 609b 223f 8f99 89be 2d6c bb3e a76e 6e3e
000001b0: ebff 06be c057 193f 81fc e03e 937b 84bd
000001c0: 5114 063e 8cb1 91be d8f5 e13e cc88 c23e
000001d0: 3ad6 133f 2dcc 913e b24b 98bd f8b4 78be
000001e0: f47b e53e 3c00 8abd acdf e83e e273 8dbe
000001f0: 5688 08be 3899 91be 77d6 38be 1704 5cbe
00000200: eee7 8cbd 692e 68be f92b 46be 1931 06bf
00000210: 336e 043e 73be a0bd 87b3 dbbd 579a 103f
00000220: 711b e8bb c394 c33e bbae 7dbe dd4c d4bd
00000230: 2c7d d5bd 7190 de3e de64 533f b6d9 5abe
00000240: 21fa 87bd 832f 1f3f b05f d93e 0c84 b63e
00000250: 4cbc 93be 68eb 50be 753a eabd f692 fa3e
00000260: f9ef bf3e fee7 503f 8528 fabc 7efb 5e3d
00000270: 7061 adbd 35c7 80be 58bb ecbd dad1 8ebe
00000280: 9f94 873e 25dd 803e fb4d f73e 2238 f83e
00000290: 1b2a 933e b39a d8bd b4af c0be d136 bc3d
000002a0: 2d1d 873e 76db 9f3e 20bb 263f 7f72 8d3e
000002b0: f106 b8be cd00 2bbe 4fe2 833e b6a7 c93c
000002c0: 5e4d cf3e 7ddd 01be 048a 21be 4dc7 e03d
000002d0: be12 dbbe 6f67 04bf 9867 cc3e 9868 04bf
000002e0: be61 04bf c74c fabe 8e66 75be e350 1abe
000002f0: 604f a6be 95c5 1a3f e478 afbd 6708 cc3e
00000300: 8d00 82bd e0f3 b4bd 9baa 6c3e 6154 923e
00000310: 6621 e03e e088 85bd a855 893d 6a53 273f
00000320: ab73 9f3e f1cd 813e 742e dfbd 579c 02bf
00000330: 850a bcbc a173 da3e e51a 6b3d 0bc1 193f
00000340: 826e 393f ccb1 8f3e b0c5 85be 1ec2 1cbf
00000350: fd3f d0bd 6223 bdbe 4dde 983e ea12 c73e
00000360: a2e4 9b3d 2e78 3d3e 956a 023f a9a7 9c3c
00000370: 04d2 813e ecb0 71be 3923 8c3e a1ea 463e
00000380: f603 0e3f b3b2 c63e bb47 3c3e 24ff 3c3e
00000390: 30be 3d3f 04e0 ea3e 2af9 e43d 9b53 9e3d
000003a0: 6db2 4b3e fda7 71be 98e6 f23e 7928 043e
000003b0: ae56 2e3e 23c8 a23e 860c 2e3e c6b3 7abe
000003c0: d3aa 223e 11a0 10bd b6cd e03e 1e8a ce3d
000003d0: aa88 0b3f 2044 0c3d aceb 6abe 5aed 933e
000003e0: 8f05 c03d 1a52 f33e 3c61 963e eab2 6ebd
000003f0: af4e d53e 598a fd3e ab92 bd3e bbe9 c23e
0.5261591 0.43659642 0.2999293 0.022007218 -0.47982785 0.045046624 0.19496651 0.119800344
0.5701578 0.1729741 -0.040653206 0.379936 0.32244512 0.36261284 0.36285886 -0.066070616
-0.13485257 0.101510316 -0.13208893 -0.28097203 0.27410308 -0.27686322 -0.3002748 0.029163152
-0.05099413 -0.029835554 -0.18946877 0.2987051 -0.07749349 0.3269808 -0.09767824 0.34938645
0.23310106 0.3244745 0.46445265 0.02014136 -0.107620135 0.53521264 0.2644801 0.3219456
0.054981448 -0.2812403 0.28511006 0.3028695 0.37857506 0.44570073 0.59343845 0.52104956
-0.063355505 -0.27090555 0.118462086 -0.16309856 0.21834539 0.28380415 0.20583563 -0.16943544
0.50098646 0.07005553 0.18082875 -0.4898842 0.36053872 0.3860051 0.45571867 0.21383664
-0.11197268 0.67401594 0.20386179 0.46315262 0.025908317 0.5837798 -0.15610024 -0.48997086
-0.32429606 0.09089773 0.20276491 -0.046751093 0.03040089 0.07051214 0.35183442 -0.095446035
-0.33346877 -0.12766191 -0.07865587 -0.32882887 -0.32955584 0.5172175 0.24387383 0.5020754
-0.07722441 0.5519352 0.030036464 0.41876966 0.27457303 0.37984174 -0.39373493 -0.41577584
0.37147373 -0.09922232 0.56467974 0.01071146 0.44637552 0.16100267 -0.0043951776 -0.5108471
0.63518333 -0.26874968 0.3660597 0.23284398 -0.13183562 0.5989952 0.43942645 -0.064688824
0.13093688 -0.2845577 0.44132876 0.37994993 0.5774876 0.28476086 -0.07436313 -0.24287784
0.4482113 -0.06738326 0.45483148 -0.27627474 -0.13333258 -0.2843721 -0.18050562 -0.21485935
-0.068801746 -0.22673954 -0.19352712 -0.5241867 0.12932663 -0.07848825 -0.107276015 0.56485504
-0.0070833494 0.38199434 -0.24773686 -0.10366223 -0.10424265 0.43469575 0.82575786 -0.21372113
-0.06639505 0.6218187 0.42455816 0.3564762 -0.28854597 -0.204023 -0.11436931 0.48940247
0.37487772 0.8160399 -0.0305369 0.05443906 -0.0846585 -0.25151983 -0.115591705 -0.2789448
0.26480576 0.2516872 0.48301682 0.48480326 0.2874306 -0.105763815 -0.3763405 0.09190143
0.26389447 0.31222123 0.6512928 0.27626416 -0.35942796 -0.16699524 0.25758597 0.024616104
0.40488714 -0.12682147 -0.15775305 0.109755136 -0.42787737 -0.5172033 0.39922786 -0.517221
-0.5171164 -0.488867 -0.23964903 -0.15069918 -0.32482433 0.60457736 -0.0856798 0.3985016
-0.06347761 -0.08835578 0.23111956 0.2858 0.4377548 -0.065202475 0.06705791 0.65361655
0.31142935 0.25352433 -0.10897532 -0.51019806 -0.022954235 0.42666343 0.057398695 0.60060185
0.72434247 0.28065336 -0.26127386 -0.612337 -0.10168455 -0.36941057 0.29857102 0.38881618
0.076119676 0.18502876 0.5094388 0.019122915 0.25355542 -0.23602647 0.27370623 0.19425441
0.55474794 0.38808212 0.18386738 0.18456703 0.7411833 0.45874035 0.11180337 0.0773079
0.19892283 -0.23599239 0.47441554 0.12906064 0.17025253 0.31793317 0.16996965 -0.2448264
0.15885477 -0.0353089 0.43906945 0.100849375 0.5450541 0.034244657 -0.22941464 0.28892022
0.0937606 0.47523576 0.2937106 -0.058276094 0.41661593 0.49519613 0.3702596 0.38068947

l1.bias f4 [8]
00000000: 767e 0d3f 53dd fa3e d18d 913e da66 043f
00000010: ef78 713e 5919 273f fdef 5b3f 76a1 b23e
0.5527109 0.48996982 0.2842851 0.5171944 0.23581289 0.6527305 0.8591307 0.3488881

l2.weight f4 [8, 8]
00000000: d8f0 87bd 118f 4fbe aad7 603f c785 d03d
00000010: 5d27 8a3f 0350 893e 9bd2 843f 7301 28bf
00000020: b9d6 cd3e 2522 873f 4eea 0abd 06e4 97bd
00000030: 35fa 4c3f 275b 8f3f 91d2 b3be 078b f73e
00000040: 468b 403e 70f5 543f 39e7 1d3f 0afa 2ebf
00000050: e09e 623f 0655 923f 8129 d33e 19f2 19bf
00000060: ff70 323f 4f35 443e ce92 333f 906b 533f
00000070: 8a8d aa3d 9e18 24bf fe5c e23e 02cf aabe
00000080: 8014 813f b3c3 423f be8e 653f 49b4 833f
00000090: 4f92 1b3f 3423 99bd b902 0ebf 7253 a43f
000000a0: 7797 833d cc1c b0be 258c 13bf d1a7 d1be
000000b0: b267 b8bd 979a 8a3f c0d6 a63f 0fc0 90bf
000000c0: ab73 723f 4166 3e3e 7c03 c8be 9da4 1a3f
000000d0: abd5 59bf 3009 533f 18e8 563e d3fe 493f
000000e0: 5917 723f b74a 1ebf a438 4e3e 979b 4a3f
000000f0: 9547 bb3e 48ea 9cbf 5041 803f 8369 b13e
-0.06637734 -0.20269419 0.8782908 0.10181766 1.0793263 0.26818857 1.0376772 -0.6562721
0.40202883 1.0557295 -0.033914857 -0.07416539 0.80069286 1.1199692 -0.35121587 0.48348257
0.18803129 0.8318701 0.6168094 -0.6835028 0.88523674 1.1432197 0.41242602 -0.60135037
0.6970367 0.1916096 0.7014588 0.82586 0.08327778 -0.6410006 0.44211572 -0.3336106
1.0084381 0.76079863 0.8967093 1.0289394 0.60770124 -0.074774176 -0.55472904 1.2837965
0.06425374 -0.3439697 -0.5763572 -0.40948346 -0.09004153 1.0828427 1.3034286 -1.1308612
0.94707745 0.18593694 -0.39065158 0.6040743 -0.85091656 0.82435894 0.20986974 0.78904456
0.94566876 -0.61832756 0.20138794 0.7914366 0.3657805 -1.2258997 1.0019932 0.34650812

l2.bias f4 [8]
00000000: 88d6 a4be 5834 acbd 4f68 ccbe a45d 023f
00000010: 1220 1abe fe06 963f a1cb 823f 8fa2 c93e
-0.32194924 -0.08408421 -0.3992333 0.50924134 -0.15051296 1.1720884 1.0218393 0.39381835

l3.weight f4 [7, 8]
00000000: b963 9dbf 18f8 3e3f e514 f23e 1521 8dbf
00000010: 1679 943d 57b3 d5be c74b c53d 075e 94bf
00000020: dc44 373e e86e afbf 23a1 09bf a5b7 f43e
00000030: a570 903e d17c 95bf 69a5 64be 51f9 d23e
00000040: 8416 17bf 5322 a3bf 3b45 dfbf 557e 173f
00000050: 01f5 45bf 9a62 553f 7dba 433f 586c 813e
00000060: 8659 523e 4b41 ac3c 62bf aa3e 8789 47bf
00000070: 0422 42bf 8c64 563f a9b5 d33e f645 d6bf
00000080: 639f 3f3f 3b48 2cbf ab63 8dbe ce01 33be
00000090: f58c 1dbf 2a34 5d3e 5831 c7bf 9dd2 f03e
000000a0: 6aab de3e 4a0d db3e bcf5 2e3e 69a7 013f
000000b0: 8faa be3e 861b c3be fec2 88bf e744 88bf
000000c0: db7b adbf 3893 c93e 91be adbf 4a14 773d
000000d0: 2625 153f 303c 89bf 35b9 e33e 641d c7bd
-1.2296058 0.7459731 0.47281566 -1.1025721 0.07249658 -0.41738388 0.09633594 -1.1591195
0.17897362 -1.3705721 -0.537615 0.4779636 0.2821094 -1.1678716 -0.22328724 0.41205838
-0.5901873 -1.274485 -1.7443002 0.5917714 -0.7732697 0.8335358 0.76456434 0.25277972
0.20541963 0.021027228 0.33349138 -0.77944225 -0.75833154 0.8374717 0.41349533 -1.67401
0.7485258 -0.67297715 -0.27615103 -0.17481157 -0.6154321 0.2160193 -1.5561934 0.47035685
0.43490154 0.42783576 0.17085928 0.5064607 0.372395 -0.38106936 -1.0684507 -1.0646027
-1.3553423 0.39370131 -1.3573781 0.060322084 0.5825981 -1.0721493 0.4447724 -0.09722403

l3.bias f4 [7]
00000000: 1062 d3bd b21b 8ebe 0ffb 3c3f 10f7 bb3e
00000010: 6ece 8ebd 7bcb edbe 8378 6d3e
-0.10321438 -0.27755505 0.73820585 0.3671193 -0.06972967 -0.46444306 0.23190503
